…
= 3, device: Optional[torch.device] = None, dtypes: Optional[List[torch.dtype]] = None, mode: str | None = None, row_settings: Optional[Iterable[str]] = None, verbose: int = 1, **kwargs: Any, ) -> ModelStatistics: torchinfo 演示 运行代码 resnet_50 = models.resnet50(pretrained=False) batch_size = 1 summary(resnet_50, input_size=(batch_size, 3, 224, 224)) 可看到resnet50的以下信息 ========================================================================================== Layer (type:depth-idx) Output Shape Param # ========================================================================================== ResNet [1, 1000] -- ├─Conv2d: 1-1 [1, 64, 112, 112] 9,408 ├─BatchNorm2d: 1-2 [1, 64, 112, 112] 128 ├─ReLU: 1-3 [1, 64, 112, 112] -- ├─MaxPool2d: 1-4 [1, 64, 56, 56] -- ├─Sequential: 1-5 [1, 256, 56, 56] -- │ └─Bottleneck: 2-1 [1, 256, 56, 56] -- │ │ └─Conv2d: 3-1 [1, 64, 56, 56] 4,096 │ │ └─BatchNorm2d: 3-2 [1, 64, 56, 56] 128 │ │ └─ReLU: 3-3 [1, 64, 56, 56] -- │ │ └─Conv2d: 3-4 [1, 64, 56, 56] 36,864 │ │ └─BatchNorm2d: 3-5 [1, 64, 56, 56] 128 │ │ └─ReLU: 3-6 [1, 64, 56, 56] -- │ │ └─Conv2d: 3-7 [1, 256, 56, 56] 16,384 │ │ └─BatchNorm2d: 3-8 [1, 256, 56, 56] 512 │ │ └─Sequential: 3-9 [1, 256, 56, 56] 16,896 │ │ └─ReLU: 3-10 [1, 256, 56, 56] -- ...... │ └─Bottleneck: 2-16 [1, 2048, 7, 7] -- │ │ └─Conv2d: 3-140 [1, 512, 7, 7] 1,048,576 │ │ └─BatchNorm2d: 3-141 [1, 512, 7, 7] 1,024 │ │ └─ReLU: 3-142 [1, 512, 7, 7] -- │ │ └─Conv2d: 3-143 [1, 512, 7, 7] 2,359,296 │ │ └─BatchNorm2d: 3-144 [1, 512, 7, 7] 1,024 │ │ └─ReLU: 3-145 [1, 512, 7, 7] -- │ │ └─Conv2d: 3-146 [1, 2048, 7, 7] 1,048,576 │ │ └─BatchNorm2d: 3-147 [1, 2048, 7, 7] 4,096 │ │ └─ReLU: 3-148 [1, 2048, 7, 7] -- ├─AdaptiveAvgPool2d: 1-9 [1, 2048, 1, 1] -- ├─Linear: 1-10 [1, 1000] 2,049,000 ========================================================================================== Total params: 25,557,032 Trainable params: 25,557,032 Non-trainable params: 0 Total mult-adds (G): 4.09 ========================================================================================== Input size (MB): 0.60 Forward/backward pass size (MB): 177.83 Params size (MB): 102.23 Estimated Total Size (MB):
…
